…
_bias_lr=0.1, warmup_epochs=3.0, warmup_momentum=0.8, weight_decay=0.0005, workers=4, workspace=None
[34m[1mtrain:[0m D:\\alzheimer detection.v1i.folder\train... found 7365 images in 4 classes  
[34m[1mval:[0m D:\\alzheimer detection.v1i.folder\valid... found 1298 images in 4 classes  
[34m[1mtest:[0m D:\\alzheimer detection.v1i.folder\test... found 1103 images in 4 classes  
Overriding model.yaml nc=1000 with nc=4

                   from  n    params  module                                       arguments                     
  0                  -1  1       464  ultralytics.nn.modules.conv.Conv             [3, 16, 3, 2]                 
  1                  -1  1      4672  ultralytics.nn.modules.conv.Conv             [16, 32, 3, 2]                
  2                  -1  1      7360  ultralytics.nn.modules.block.C2f             [32, 32, 1, True]             
  3                  -1  1     18560  ultralytics.nn.modules.conv.Conv             [32, 64, 3, 2]                
  4                  -1  2     49664  ultralytics.nn.modules.block.C2f             [64, 64, 2, True]             
  5                  -1  1     73984  ultralytics.nn.modules.conv.Conv             [64, 128, 3, 2]               
  6                  -1  2    197632  ultralytics.nn.modules.block.C2f             [128, 128, 2, True]           
  7                  -1  1    295424  ultralytics.nn.modules.conv.Conv             [128, 256, 3, 2]              
  8                  -1  1    460288  ultralytics.nn.modules.block.C2f             [256, 256, 1, True]           
  9                  -1  1    335364  ultralytics.nn.modules.head.Classify         [256, 4]                      
YOLOv8n-cls summary: 56 layers, 1,443,412 parameters, 1,443,412 gradients, 3.4 GFLOPs
Transferred 156/158 items from pretrained weights
[34m[1mAMP: [0mrunning Automatic Mixed Precision (AMP) checks...
[34m[1mAMP: [0mchecks passed 
[34m[1mtrain: [0mFast image access  (ping: 0.20.0 ms, read: 6.41.0 MB/s, size: 39.4 KB)
[34m[1mtrain: [0mScanning D:\æ¯•è®¾\alzheimer detection.v1i.folder\train... 7365 images, 0 corrupt: 100%|â–ˆâ–ˆâ–ˆâ–ˆâ–ˆâ–ˆâ–ˆâ–ˆâ–ˆâ–ˆ| 7365/7365 [00:00<?, ?it/s][34m[1mtrain: [0mScanning D:\æ¯•è®¾\alzheimer detection.v1i.folder\train... 7365 images, 0 corrupt: 100%|â–ˆâ–ˆâ–ˆâ–ˆâ–ˆâ–ˆâ–ˆâ–ˆâ–ˆâ–ˆ| 7365/7365 [00:00<?, ?it/s]
…
